binary_cnn_model.pth (torch, 56449 bytes, 5 tensors)

net.0.weight f4 [16, 3, 3, 3]
00000000: 022f 7a3d 6968 1bbe 82aa 223e 1071 a0bd
00000010: 33ea 96bd 148e 97bc dc25 5c3e 21ac 59bd
00000020: ca15 c63c 913f 0cbe 2045 04be 2e6a c73d
00000030: 545b 8a3c c1b9 b8bd b19f 223e d46d 033e
00000040: 54a2 aa3d 4bd3 bd3d 977e 43be dff8 f53d
00000050: 48f8 4c3e 3e91 3fbe 207a 4cbe 7886 d1bd
00000060: ccc1 743e 49ad 563d a14f 7abe cf3e 47bd
00000070: 5635 0b3d b9cf eb3c aba9 083e 2121 23bd
00000080: 5752 08be 343a c03d e19a 403d 5f54 39be
00000090: 6f8d 323e b566 0fbd 9b5c 9d3d 1f49 053e
000000a0: 9ef0 e43d eece 38be 20a9 183e e0e8 ddbb
000000b0: e52c d83d ef82 883d fb0e 20be 64ef 273e
000000c0: ae70 343d f33b 453e 7139 843d 3658 9abd
000000d0: e3b5 2a3e 7686 bc3c 7d9a 103c dd11 b93d
000000e0: 5ac4 e1bc 2dd1 703d a01a 3abe 7b2a 12be
000000f0: 43da 193e 36c5 de3d 59db d33b 1fe0 123e
00000100: 6629 233e 0b00 7ebe 500a 673e 370c 34be
00000110: 1a65 09be d8cd 4bbe 9e49 80bc c1c4 c5bd
00000120: 884b 803e 2c87 0ebd 639e e6bd 9978 ce3d
00000130: 569f eebd 8fbb 883d 84cd f8bc e45f 573d
00000140: 3739 ff3d bfcc 413e 2078 7dbe 58a5 9fbd
00000150: 0a32 c8bd cb8f 6c3e 3ce5 60be 9cd7 09bd
00000160: 1d08 743e a4e4 493c ea24 be3d ba3e 77be
00000170: a9b8 25be 41eb 353e d606 513e ab1a 1dbd
00000180: 2a93 7c3e 0dfc e03d 6226 433e e323 11be
00000190: b74b ba3c 072c 88be 2146 383e 609c 67bd
000001a0: eeef 60be f7c1 19bd df1b 9c3d 2fcb 90bd
000001b0: 4cb4 5ebe 7348 0bbe ed72 3e3e 902c 4cbe
000001c0: fc44 cd3b 07be 0d3e b457 49bb ee0f d7bd
000001d0: 0055 1bbe 0145 b93d f1b4 0b3e 0f67 9a3c
000001e0: f0a9 5ebe 2e83 6c3d fb94 3fbd 512e 31bd
000001f0: 1dcd 71bd c571 6cbc b46f 17be d085 7abd
00000200: 0337 2f3e 41b8 903d 0c03 cabb 9086 45be
00000210: bc3f cbbd 4ff7 18be 478e efbc 6ad8 d43d
00000220: ad28 2f3e af36 5cbe a92f 3e3e 868f c13d
00000230: d647 91be 637f 1ebe d687 003e 5cef a63c
00000240: 6f53 093e 600b 9dbd 04ff 69be 3b2e 803e
00000250: 8501 c93c 740e 0ebe bbc5 6cbc d4d0 1cbe
00000260: de83 ccbd 33b6 993d 5db3 413e a69a 6dbd
00000270: aa71 fd3d 9117 3e3e 0cde 3ebe c1e9 e13d
00000280: a809 d4bd 41b3 b6bd 2c8a 0ebe 3e52 5c3d
00000290: f355 0cbe dc50 fdbc 48ff 163d 6840 3bbe
000002a0: 4d02 a3bd 7bd6 b93d d733 aebd 77cc b4bc
000002b0: b601 49bd 4224 6fbe 4db7 f9bd 7957 a3bd
000002c0: 0b98 8dbd b902 1bbe b775 b3bd 6713 4abd
000002d0: 1806 c9bd 84cd eabd f415 bc3c d288 63be
000002e0: c5c2 e23b 581f 86bd 6f1b 8f3d 6818 ec3d
000002f0: 03f4 e13d 3338 7dbd 4a70 6fbd 269a cabc
00000300: fee5 8b3d e299 273e d6c5 30bd 3b48 7abe
00000310: 1105 22bd 3d5a c43d 1cb6 55be 7ceb 183d
00000320: a721 a13c d5d1 4cbb c018 083d 749c 863d
00000330: bc6e 0c3b 27ab a13c 52b7 083d 38e6 573d
00000340: 53d1 583d 236e 97bd 5831 b4bb cb42 393e
00000350: a46f ae3d 4e20 81be 0a9a 203e 7cc1 babd
00000360: fe8c a7bc 1327 5ebe f800 49be c869 28be
00000370: 9eea 80bd 977c 0d3e a823 91bd c88c 703d
00000380: 4153 c83b 85dd bd3d 5f9b 4abd 9838 e9bd
00000390: f7db afbd d323 073e 4557 e7bd bd0d 413d
000003a0: 03f9 813b a6f5 623e 7fbb 023d 0ade 10be
000003b0: 0606 983c a542 293e 3ccf 253e 121e b33c
000003c0: 6090 a1ba c8fd 403e 1125 de3b 7b46 7bbe
000003d0: 5c47 66be 82ac 0dbd e383 64be b585 c6bd
000003e0: 5a64 b53d 8094 0f3a cfd5 2ebe 5ebc 59be
000003f0: f833 93bd addc 9b3d 64b4 fc3c 74d8 d0bd
0.061079986 -0.15176548 0.15885356 -0.07834065 -0.07368889 -0.018500365 0.21498817 -0.05314267
0.024180312 -0.13696124 -0.12916994 0.09737049 0.016889252 -0.09019805 0.1588123 0.12834865
0.08331743 0.092688166 -0.19091259 0.12010359 0.20016587 -0.18707749 -0.19968462 -0.10230726
0.23902053 0.05241135 -0.24444439 -0.048643883 0.033986412 0.028785573 0.13345973 -0.039826516
-0.1331266 0.09386101 0.047022704 -0.18098591 0.17436765 -0.03501006 0.07683679 0.13016175
0.111787066 -0.18047687 0.14908266 -0.0067721456 0.10555438 0.066655986 -0.15630715 0.16399914
0.044052772 0.1926115 0.064562686 -0.07536356 0.16670947 0.023013335 0.008825895 0.0903661
-0.027559448 0.058793236 -0.18174219 -0.14274018 0.15024666 0.10877459 0.0064653573 0.14343308
0.15933761 -0.24804704 0.22562528 -0.17582785 -0.13417473 -0.19902742 -0.015660103 -0.096566685
0.25057626 -0.03479688 -0.112606786 0.10081596 -0.11651485 0.06676399 -0.030371435 0.052581683
0.12462085 0.1892576 -0.24752855 -0.07795209 -0.09775169 0.23101728 -0.21962446 -0.033652887
0.2383122 0.012322579 0.092843845 -0.24145022 -0.16183724 0.17765523 0.20412764 -0.03835551
0.24665514 0.10985575 0.1905761 -0.14173846 0.022741182 -0.2659609 0.17995502 -0.056545615
-0.21966526 -0.037538495 0.076225035 -0.07070004 -0.21748465 -0.13601856 0.18598528 -0.19938874
0.006264327 0.13842021 -0.003072244 -0.10501085 -0.15169144 0.090463646 0.13643242 0.01884797
-0.21744514 0.05774229 -0.04677294 -0.04325706 -0.059033502 -0.014431422 -0.14788705 -0.06116277
0.17110829 0.07066394 -0.006164914 -0.19289613 -0.09924266 -0.1493809 -0.029242648 0.1039284
0.1710536 -0.21505235 0.18572868 0.09451203 -0.2837512 -0.15478282 0.12551817 0.020377807
0.13410734 -0.07668185 -0.22851187 0.2503527 0.024536857 -0.13872701 -0.0144514395 -0.15314037
-0.09986089 0.07505455 0.18916078 -0.058008812 0.12375195 0.18563677 -0.18639392 0.11030913
-0.10353404 -0.08920909 -0.13919896 0.05378937 -0.13704662 -0.030922346 0.03686455 -0.18286288
-0.07959423 0.09074112 -0.085059814 -0.022070153 -0.049073897 -0.23353675 -0.12193165 -0.079756685
-0.069137655 -0.15137757 -0.08762687 -0.04933491 -0.098156154 -0.1146498 0.022959687 -0.22220162
0.006920191 -0.06548947 0.069876544 0.115280926 0.1103287 -0.061821174 -0.058456697 -0.024731707
0.06830977 0.16367295 -0.04315742 -0.24441616 -0.039555613 0.09587524 -0.2087025 0.03733395
0.019669367 -0.0031253 0.03322673 0.0657281 0.0021428308 0.019734932 0.033377953 0.052709788
0.052934002 -0.07394054 -0.0054990463 0.18091886 0.085173875 -0.2521996 0.15683761 -0.091189355
-0.020452973 -0.21694593 -0.19629276 -0.16446602 -0.0629475 0.13817059 -0.07086879 0.05872801
0.0061134403 0.09270767 -0.04946458 -0.113877475 -0.08586877 0.1319726 -0.11295942 0.047132242
0.003966452 0.2216402 0.03191709 -0.14147201 0.01855756 0.16529329 0.16192335 0.021864925
-0.0012326352 0.1884681 0.006779321 -0.24538605 -0.22488159 -0.034588344 -0.22315936 -0.09693471
0.08857031 0.00054771453 -0.17073749 -0.21263263 -0.071876466 0.0761045 0.030847736 -0.10197535

net.0.bias f4 [16]
00000000: 56d2 25be bf03 febd db4b 4c3c d159 b1bd
00000010: 29dd e4bc 2993 9a3b 3239 95bd 56f1 653d
00000020: 2e8a 5bbd fe4a 88bc 5b6f 80bc 7941 41be
00000030: f297 113e 750e babd 6a0a d53c 19e3 013e
-0.16193518 -0.12403058 0.012469257 -0.08659709 -0.027937489 0.00471725 -0.072863 0.05613836
-0.053598575 -0.016637322 -0.015678098 -0.18872632 0.14218119 -0.09084789 0.026005942 0.12684287

net.3.weight f4 [32, 16, 3, 3]
00000000: e8c7 e6bd 370d 013d ac59 aabd 0569 463d
00000010: fa43 50ba 1706 c73b 1e8a 1f3e e056 f33d
00000020: c2f5 bbbb 1a54 edbc ae38 333d 5971 9fbc
00000030: 82ad 84bd 67cc b2bd 99c8 af3c 0b57 09ba
00000040: cb87 05bd 3f7e 56bb 1c44 093e c55f 963d
00000050: 6166 2b3d 20ef 823b 9d60 3d3d 79d5 86bd
00000060: e9d5 4cbc b923 6ebb c61f f5bc 7c70 0abe
00000070: 3238 5cbd 3bce f4bc 7563 17bd bcff 083d
00000080: 64ec c43d 1538 563d 6f16 283e 09c5 113e
00000090: b373 dd3c 529e 203d 832d 30bd fd66 333c
000000a0: 5b6a 0ebd a6a3 1ebd e79b 883d e9cd 853d
000000b0: 8b46 25bd 133a 043e ea09 aebc d5a0 3bbb
000000c0: bfa7 3d3d 1704 c3bd 02aa afbd c5f1 0cbe
000000d0: 94d5 a03b c0a5 7d3d dc22 a1bd 1384 47bc
000000e0: 7d63 213d 6d12 0bbb c25c 5abd 920b aebd
000000f0: 19a7 1cbd d5b5 503d 9f80 2d3b 63e3 813d
00000100: aad6 9ebd 3f6c c1bc ad48 3cbc eb57 6b3d
00000110: f18e 7e3d 4b9f 553c 2667 dc3b 00ef b93d
00000120: 0ce0 bbbc 8bc8 463d eca5 aabd 4758 afbd
00000130: 93bb 31bd c26d 483c de75 043e 9ef4 b53d
00000140: 1deb 0e3d 9f5b c83c cdf2 633d e993 3fbd
00000150: 29ee b73d 0f67 633b 713d c0bd 52f7 863c
00000160: d5de 30bb 9005 6c3d df51 9c3c 0e39 413d
00000170: 393f 14be 0166 3abd f899 6cbd 18eb cbbd
00000180: 10e5 933d 350a 033c 3bba bf3d d59b 81bc
00000190: 7d3e 23bd ef63 d4bc 0272 9c3d c4fa 3a3d
000001a0: e87a b1bd d15f 0cbd da93 aa3d f5b1 0d3d
000001b0: 5250 d33c e2e4 b73d 0f60 c7bd bace b83d
000001c0: 4b57 bf3c 597e 48ba bd46 8a3d 45d9 b4bc
000001d0: 016f b1bd 7284 c4bb 2eae ccbc 2347 95bb
000001e0: 6e30 89bd df9b 8d3d 8fc4 80bd c9d4 4aba
000001f0: bb64 66bb 1818 40bb 2b01 9ebc 108e 4ebd
00000200: 2060 34bc 6e56 d8bc c205 653c e1ea 203d
00000210: 5161 c8bb 2620 28bd 60c1 1e3d 836c 113e
00000220: 9654 273d 928e 26bd b3cd f7bc 1104 febd
00000230: 217c 25bd fc56 a5bd 4ad0 1bbd 5e58 4bbd
00000240: 5331 a03d df69 dd3d 138c de3d 372e 673d
00000250: b7ff 113d 152b b53d 6422 013e 052e 563d
00000260: 9c39 993d 0de8 493d b440 973d 44d3 65bd
00000270: 4c0a 8bbc d4e1 85bc f714 34bc 3119 73bd
00000280: 4169 433d dfdc a43c 04ef 993d a5af 083e
00000290: f036 8cbc c543 513d f419 bfbc 24f3 8bbd
000002a0: 02f7 d3bd ee88 213d 5961 cf3d 7e5d c23c
000002b0: ee36 073d 98ba ad3c eadd 71bd d3c6 b63d
000002c0: 1981 0f3d 325e 32be e338 893b ce2f 973d
000002d0: 1d51 71bd 5c12 a93d ddee c33d 8627 803b
000002e0: dca4 d0bc 0807 9ebb 8418 ef3d 6aa0 9b3d
000002f0: ef22 a5bd 7b61 1e3e a8e9 c6bb e7e8 86bd
00000300: 5b1a 5d3d 3b50 1e3c 2bb7 c23d 7c89 f3bd
00000310: 4560 b13b 67ce 973d 5ff0 26bd 49ea 1abd
00000320: f907 32bd 03fe 8ebd ad4e 8cbd e712 a83d
00000330: 64d1 0cbd 1ece 2abd 8ba7 273d 97d7 8d3c
00000340: 80d5 65bc ac57 fdbc 72d3 8b3c 158c bebd
00000350: 6d66 9abd 85d4 5fbd 8267 e43d da4d 503d
00000360: 456f aa3d 2a58 c13d 85d5 ca3d 6a77 b33c
00000370: 9d91 46bc 028d 243d 4a2f 9a3c 8067 d53c
00000380: 2640 493d a724 5b3d c6e3 473d 5671 903d
00000390: eb67 c83a 6732 233d de73 5b3c d598 c73d
000003a0: 787b 2abd 71ed 84bc 14e9 a0bd d34b 1cbe
000003b0: 0d6f 8abd 0662 8ebd d8df abbc 8635 77bd
000003c0: c8fa 0ebd 6c90 78bd a985 ac3b c025 f6bc
000003d0: 3f78 f7bd 78b8 023b 0562 cabc 2af1 99bd
000003e0: 3c48 443d 2063 3a3d f8f0 8e3a 2f7b 8c3d
000003f0: 970e 163d 94aa 63bd f97d 19bb cdfe bf3d
-0.11268598 0.031506743 -0.08317885 0.04844 -0.00079446996 0.006073724 0.15580031 0.118818045
-0.0057360837 -0.028970767 0.043755226 -0.019463228 -0.064784065 -0.08730393 0.021457957 -0.00052391057
-0.032600205 -0.0032729057 0.13404888 0.07342485 0.041845683 0.003995791 0.046234716 -0.065836854
-0.012502172 -0.003633721 -0.029922377 -0.13519472 -0.05376453 -0.029883495 -0.036960084 0.033447012
0.096154004 0.052299578 0.16414808 0.14235319 0.027032709 0.039213486 -0.043012153 0.010949847
-0.034769397 -0.038730286 0.06670361 0.06533415 -0.04035048 0.12912779 -0.021244962 -0.00286298
0.046302553 -0.095222645 -0.08577348 -0.13764103 0.004908273 0.06192565 -0.07867977 -0.012177485
0.03940152 -0.00212207 -0.053311117 -0.084983006 -0.038245294 0.05095466 0.002647437 0.06342199
-0.07755788 -0.023611186 -0.011491937 0.057456892 0.06214804 0.013038467 0.0067261634 0.09078789
-0.022933982 0.048531096 -0.08332428 -0.085617594 -0.043391775 0.0122332 0.12935588 0.08884548
0.03489219 0.02445775 0.055651475 -0.046771917 0.08980972 0.003469888 -0.09386719 0.016475353
-0.0026988287 0.057622492 0.019082008 0.047173552 -0.14477243 -0.045507435 -0.057764024 -0.0995695
0.072214246 0.007998039 0.093616925 -0.015821377 -0.039854515 -0.025926558 0.07638933 0.045649305
-0.08666021 -0.034271065 0.08328982 0.03459354 0.025795136 0.08979203 -0.097351186 0.09023805
0.023357054 -0.0007648222 0.067517735 -0.022076258 -0.086637504 -0.005997234 -0.0249854 -0.0045555993
-0.0669869 0.06914496 -0.062874906 -0.0007737396 -0.0035155255 -0.0029311236 -0.019287666 -0.05042845
-0.011009246 -0.0264084 0.013978424 0.039286498 -0.0061151166 -0.041046284 0.038758636 0.1420155
0.04085215 -0.04066331 -0.030249452 -0.12403119 -0.04040158 -0.080732316 -0.038040437 -0.04964482
0.07821908 0.10811209 0.10866561 0.05644056 0.03564426 0.08846108 0.12610775 0.05228998
0.07481691 0.049293566 0.07385388 -0.05610968 -0.016972683 -0.016343035 -0.0109913265 -0.059350196
0.0477078 0.02012485 0.07516292 0.13348253 -0.01711604 0.05109002 -0.023327805 -0.06833485
-0.103498474 0.039437227 0.101259895 0.023726221 0.03301137 0.021207139 -0.059049524 0.089246415
0.035035226 -0.17418745 0.0041876896 0.07382165 -0.058915246 0.08255455 0.09567044 0.0039109616
-0.025469236 -0.0048226155 0.11674598 0.07598956 -0.08063304 0.15466873 -0.0060703345 -0.06587391
0.053980213 0.009662683 0.09507593 -0.118914574 0.0054130876 0.07412415 -0.04075658 -0.037821088
-0.043464635 -0.06982043 -0.06850944 0.0820673 -0.034379378 -0.041700475 0.040931266 0.017314715
-0.014027953 -0.030925594 0.017068598 -0.09304062 -0.075390674 -0.054646034 0.11152555 0.050855495
0.08322004 0.09440644 0.09904007 0.021907527 -0.012119678 0.040173538 0.018821377 0.02605033
0.049133442 0.05350175 0.048801206 0.07052867 0.0015289759 0.03984299 0.013394324 0.09745947
-0.041621655 -0.016226502 -0.07856956 -0.152633 -0.067594625 -0.0695229 -0.02098076 -0.06035378
-0.034907132 -0.060684606 0.005264957 -0.030047297 -0.12083482 0.0019946378 -0.024704942 -0.075167015
0.04792045 0.04550469 0.0010905555 0.06859433 0.036635008 -0.055582598 -0.0023421033 0.09374771

net.3.bias f4 [32]
00000000: 878b f13c 7b60 8e3b a29f d93c 09aa 9dbd
00000010: 3909 e1bc bfdc 6dbc 68df 883d 5903 55bd
00000020: 7d16 e83c 3d91 28bd b06a 643d 51f2 febc
00000030: 2e0e 693d 7deb c63c 0b49 4e3d 8eda 50bd
00000040: 5962 88bc 8186 33bd 6afb e03b 0f6b a5bd
00000050: a562 84bd b554 a6bd 657f 9bbd 25a6 b23a
00000060: 5947 0d3d 4d14 60ba a2f7 a03d 3dfe 45bd
00000070: c58a c6bc 3347 073d bae4 c1bb 5a63 363d
0.029485477 0.0043449975 0.026565377 -0.07698447 -0.027470218 -0.014517962 0.06683236 -0.052005146
0.028331036 -0.041154135 0.055765808 -0.031121405 0.05689829 0.024282211 0.050362628 -0.05098968
-0.016648458 -0.043829445 0.0068659084 -0.080770604 -0.064641275 -0.08121625 -0.07592658 0.0013629837
0.03449187 -0.0008547947 0.07859732 -0.048338164 -0.024236092 0.033026885 -0.005917159 0.044528343

net.7.weight f4 [1, 8192]
00000000: 0803 fabb 243a 69bd ef7b 0fbd 28a7 7dbd
00000010: c95b 03bd 984a 68bd 6d97 a8bd 2146 8cbd
00000020: b0b5 66bd 30b2 51bd f745 5ebd fda3 4fbd
00000030: 13e0 d7bc 9bf9 04bd f773 3ebd 51e4 52bd
00000040: 4be2 69bd 4b87 14bd 8c19 05bd 83d5 3cbc
00000050: 6d70 21bb 2ad0 70bc 230f 1fbd 99bd f5bc
00000060: ee56 65bc 34cd 03bd 5bc6 0bbd 13f7 f0bc
00000070: e22d c3bc 14a7 81bb 3dcb 06bd cc49 c9bc
00000080: 1b2e 63bd 6101 52bd 88a8 13bd 6d2b 0b3b
00000090: 44ae c2bc 5ebd 8fbc 6ffb e9bc a601 09bd
000000a0: 224c 19bc c9f1 babc b116 8a3b e93e c8bb
000000b0: 464e e4bc 8d5d 48bd c054 eabc a73e 193c
000000c0: d763 71bd 142d 49bc ce7c 87bc 9673 62bc
000000d0: 0c9d ceba 2424 8abc 59ad 023c d186 01bc
000000e0: 2f78 b23b 7018 82bc d2a2 8dbc 4602 ffbc
000000f0: 6ce2 a7bc a7cd 69bc 9113 83bb 40d8 eb3c
00000100: d155 1bbd e4a8 3fbc 8868 48bd 55d5 3fbc
00000110: 750d 1bbd ea6c f3bc 3116 14bd 5aee 90bc
00000120: b58f 3c3c e6b7 77bc 14b2 b939 b1ba 093c
00000130: b191 f23b 68bd 8bbb fafe b03b 7093 b33c
00000140: 127c 86bd ddba 34bd dda9 d1bc 7f90 513a
00000150: 5752 cbba e15c 69bb 9a8c df3c 4655 613b
00000160: a11a ab3c 2a8a 9b3b 96fc 51bc c5d6 4cbc
00000170: 4e70 dabb 427e 1fbc 1adb a3bc c027 413c
00000180: 1838 28bd e7bd 3f3a dadd ef3c 90f6 5d3c
00000190: 769c 1f3c 3897 4c3c dff6 603c 783a 6c3c
000001a0: 6280 dd3c 6d21 35bc db89 1ebb 72b8 fdbc
000001b0: 37d8 9ebb 4cfb 593c 5e09 34bb 838e 79ba
000001c0: 9266 a2bc f9f6 d43c b157 543c 1820 043d
000001d0: 89c7 253d 4b6b 6b3c 55be 633c bd97 433d
000001e0: 7f04 f23c d1fc 113c 30d7 813c 70a6 253c
000001f0: b0a2 f93c e910 fa3c 0c1d 4b3b 7a89 7f3c
00000200: 63bf 0ebd cd78 013c a888 923c f35a 9f3c
00000210: 6852 e43c 7f40 d33c 9a33 c53c cb0d a63c
00000220: f6e7 903b c09f a03c d013 383d 5572 c63c
00000230: 639f 023d c4ff 313d 96b2 f83c 22ee ab3c
00000240: c7d9 d1bc 2b55 febb f7a4 253c b8ca 503c
00000250: 782a 463c eabe 4a3b 2cef 453a fb3d ed3c
00000260: b7e8 c53c 242f e33c 9b55 9bb9 5aae 7c3b
00000270: 7449 783c fd3b 663c 3aff b33b 3ed2 223c
00000280: 4837 183b cbca ac3c dabc a43c 3997 d63c
00000290: 20d2 ce3c 1665 2d3d 0a25 883c 9566 e13c
000002a0: 2ff3 0a3d 869a 553c d964 be3b 18a0 d03b
000002b0: ab2e b93c 9c89 c93c 8396 793c 81c0 be3c
000002c0: 4536 cabc 9787 de3c f7ab 8f3c 7b57 243c
000002d0: 5341 ba3c cf7d f93c 4821 9b3c fcc1 c43b
000002e0: 8d8a 7c3b 6e59 e1ba c560 163b fbe6 05ba
000002f0: f2b6 fabb edca 233b 819b 553c cf21 2d3d
00000300: 5cf3 21bd c520 acbb cbee 853a 9089 183b
00000310: cbb0 39bc f0b0 cf3a 9290 0e3b 2c81 373b
00000320: acf1 0cba 5427 253a 7f6b 24bc 15db 02bc
00000330: dae2 8abb ff39 26bb 45d4 ec3c e90d bd3c
00000340: d13d 4dbd e43c acbb 3881 8bba fa2f ecbc
00000350: b9e5 b4bc cf88 52bc 072e cfbb 3f92 823c
00000360: 130c d53b e0a8 c53b c1d8 9b3c d281 303c
00000370: 0203 ef39 90bb 1dbc 0705 df3a c5d9 c73b
00000380: 8c26 f4bc 04cd 473b d78d 8ebb 4d7c e33b
00000390: 86f3 313c 90d5 1f3b 0a9f 2a3b 95dd 1dbc
000003a0: d5f1 933b d684 8a3c 7f99 cc3a b9c3 43bb
000003b0: 71ff a53c 56d4 6ebb fc73 de3c e341 043d
000003c0: 6cb4 693c dc0b 863b c91c 9b3b f0dc c33c
000003d0: 08a7 ec3c bda4 bc3c e165 e03b d7b6 03bb
000003e0: a3e5 d43a 24ee 46bc e51d f5bb 8aa5 f5bb
000003f0: 248a f43b e586 123c c1e5 413b 64d9 7a3c
-0.007629756 -0.056940213 -0.0350303 -0.06192699 -0.032069955 -0.056711763 -0.08232007 -0.068493135
-0.056325614 -0.051195323 -0.054265942 -0.0506935 -0.026351964 -0.032464605 -0.04649731 -0.05148727
-0.057100575 -0.036261838 -0.032495067 -0.011525515 -0.0024633661 -0.014698068 -0.038832795 -0.029997634
-0.013997776 -0.03217812 -0.034124713 -0.02941469 -0.02382559 -0.003956685 -0.032908667 -0.024571322
-0.05546389 -0.051270846 -0.036049396 0.00212356 -0.023764737 -0.017546352 -0.028562276 -0.033448838
-0.00935653 -0.02282037 0.004214131 -0.006111015 -0.027869355 -0.048917342 -0.028604865 0.009353316
-0.058933105 -0.012278814 -0.016539004 -0.013821503 -0.0015763356 -0.016862936 0.0079759 -0.007905678
0.005446456 -0.015880793 -0.017289553 -0.031129014 -0.020493709 -0.014270223 -0.004000135 0.02878964
-0.037923638 -0.0116979815 -0.048927814 -0.011708577 -0.03785463 -0.02971502 -0.036153976 -0.01769178
0.011508872 -0.015119528 0.00035418628 0.008406327 0.0074026217 -0.0042645223 0.0054014893 0.02192089
-0.06566633 -0.04412352 -0.025593692 0.0007994249 -0.001551221 -0.0035608339 0.027288724 0.0034383102
0.020886721 0.004746695 -0.012816569 -0.012502377 -0.00666622 -0.009734692 -0.020001937 0.011789262
-0.04106912 0.00073143694 0.029280592 0.013547555 0.009741893 0.012487225 0.013730734 0.014418237
0.027038757 -0.011055333 -0.0024191055 -0.03097174 -0.004847552 0.013304543 -0.0027471404 -0.0009519832
-0.0198243 0.025996672 0.01296036 0.03225717 0.040473495 0.014368842 0.013900359 0.04775213
0.02954316 0.008910374 0.01584968 0.010110483 0.030473083 0.030525642 0.0030992655 0.015596742
-0.03485049 0.007902336 0.017887428 0.019452548 0.027871326 0.02578759 0.024072457 0.020270249
0.004422183 0.019607425 0.04494077 0.02422444 0.031890284 0.043456808 0.030358594 0.020987574
-0.02561654 -0.0077616177 0.010110131 0.012743644 0.012095086 0.0030936548 0.0007550593 0.028960219
0.024158819 0.02773244 -0.00029627685 0.003855607 0.015154231 0.014052388 0.005493072 0.009937821
0.002322631 0.021092793 0.020109583 0.026195155 0.02524668 0.04233273 0.016619224 0.027514735
0.033923324 0.01303733 0.005810362 0.006366741 0.02260526 0.02460175 0.015233639 0.023285152
-0.02468408 0.027164264 0.017538054 0.010030623 0.022736227 0.030455498 0.018936768 0.00600457
0.003853473 -0.001719279 0.0022945863 -0.0005107966 -0.0076512033 0.002499278 0.013037563 0.04226857
-0.039538726 -0.00525293 0.001021826 0.0023275353 -0.011333655 0.0015845578 0.002175365 0.0028000576
-0.0005376588 0.0006300111 -0.010035395 -0.007986804 -0.0042384686 -0.0025364158 0.028909812 0.023077922
-0.05010778 -0.005256282 -0.0010643369 -0.02883147 -0.022082197 -0.0128500005 -0.0063226256 0.015938876
0.0065016835 0.0060320944 0.019024255 0.010773139 0.00045587873 -0.009627238 0.0017015048 0.006098958
-0.029803537 0.003048719 -0.0043504047 0.006942308 0.010861283 0.0024388768 0.0026034736 -0.009635349
0.0045149126 0.016909044 0.001560971 -0.0029871298 0.020263406 -0.003644248 0.027154915 0.032289397
0.014264207 0.004090769 0.004733656 0.023909062 0.02888824 0.023027772 0.0068480824 -0.0020097995
0.0016242753 -0.012141738 -0.0074803703 -0.0074965404 0.0074627567 0.008943294 0.0029586407 0.015310619
